pruning_bench/configs/CNN helper functions/optimal_weights.npy (npy, 20008 bytes, 1 tensors)

array f4 [4970]
00000000: 3ac7 babd 97f7 04bf 93e7 2dbf 30f7 40be
00000010: 6f8f 83bd d6ca 283e fffb 55bd 7171 dabe
00000020: 98f9 7fbe c95e 40be 40a1 14be d915 d8bd
00000030: 87d5 c1bf 4827 59bd e703 a9be be79 48be
00000040: 33e4 b03f efd1 44bd ab39 853f 702b 04bf
00000050: aeb7 8abf 3123 8bbe f222 573f 01f2 2f3e
00000060: 56d4 1abf b24d 0240 fbf5 d9be c198 763e
00000070: fa9c 9e3e ec23 013d 2343 19bf 3a2f a93f
00000080: 8df3 2f3f 329d 2b3f 554a 67bf 8fe0 5ebf
00000090: 780f c33d 6ed8 e13e a5ad d2bf 5ae8 aabe
000000a0: 2cac 10bf b907 e0be 3f6b 49bf 4bc2 a53e
000000b0: 77ac 64bf 83d0 383e e52d f73f 98da 09c0
000000c0: b060 ef3d a642 1e3e c8f4 a9bf 2655 dd3f
000000d0: 161f 063f 8e2b a6bd 5fde 423f 81a0 94bd
000000e0: c229 17bf 7631 c8bf 107e 8a3e 186b 69bf
000000f0: c7fd 883e 6cee efbd d33f d2be f8ab 043f
00000100: 05c7 95bf 6182 d23f 3718 c43e 08cc d03f
00000110: 38dd 46bf b9c4 043e 811c 863f 6cd4 d53b
00000120: dc42 89bc 2b35 ccbe a502 bb3f 787e 883f
00000130: 6cc4 ff3d 6b0d 6ebf cd92 94bf 32c9 b0bf
00000140: 70a9 90bf 84f0 5f3e 2729 de3f 70c3 08c0
00000150: aa5b cebd dcde a2be 911d dfbf a227 27bf
00000160: f93e 583e a6bd 42bf 12af 0740 d17a 513d
00000170: 059f ab3e 3bfd 0940 1e7b c2bf 1344 413e
00000180: eee1 54bf a664 51bf 0878 15bf d8db 25bf
00000190: 78ff 723f 4c07 bd3e 97f7 683f a266 3b3e
000001a0: 48ca 5bbe a74f 443f bf13 a3be 4d12 85bf
000001b0: d6b1 f13e 0a51 b1bf 307d 0440 1d52 a33f
000001c0: af5f cb3d 51cb d0bd 6240 4fbf 6a25 81be
000001d0: aabe 3fbf 52cc 103d 28b7 243f 8651 dc3f
000001e0: bbf5 0b3f 853e 98bf 5fd6 a9bf d6d7 843f
000001f0: 7273 bfbd df29 bdbf 5b2f be3f 79da b1be
00000200: 4fed dd3e c02a 9abf 2b59 b23e 4339 e63f
00000210: d37d e23e 0b45 273e 9df6 d7bf f023 a23c
00000220: 40b6 2e3f b556 b93e eaab a2bf 4c73 2abe
00000230: 44df c1be 65e3 1040 61db afbf 2278 1640
00000240: 80d6 903e 6285 aebe c9b1 0f3f 0f13 58bf
00000250: 3bcb 313f 8217 01bd ece3 773f cffd 7ebe
00000260: 66f6 073f 7c24 903f 5f1d 973e 5777 32bf
00000270: 3ff1 a6be 286b 45bf 331a 18bf 1295 f5bf
00000280: 5180 9a3e 0608 403e baf9 553f ae6e f43e
00000290: 8730 b4bc 0257 f2be a759 1d3f 5b46 f93f
000002a0: 1856 573e 28de 213f 9a80 623f 9c3d 25bf
000002b0: 7cd1 a83d 6b3a a43f fa92 f23e 6478 ea3e
000002c0: 13d9 603f 106f 5b3e 80ef e03e 20b3 3f3d
000002d0: 9bbc d43f eb57 f33e d275 a2bf 9be4 67bf
000002e0: 1e4e 3c3f e445 07bf 0981 a13e 25ea 02be
000002f0: 726b 053f 7679 4b3f d045 87bf 867d a6be
00000300: 6d00 763e 8ea9 73be 1c84 d83d a98a 07bd
00000310: fa88 323f 4059 a0be e5d2 5bc0 ca0e 8c3e
00000320: f4c8 d23d d4e5 d1be f167 6dbe 4f28 03c0
00000330: fefc 853e 2a90 c93e f63c 01be 7d62 83bf
00000340: 372c 4bbf 86a1 9cbf 0752 eebf 6a58 df3e
00000350: 39ca 06bd 9d81 9b3e 2463 aabf f048 5b3f
00000360: 0a63 903d 1ca1 94bd f4f2 393f d27c 56be
00000370: 8f5e 05bf 4324 5dc0 802a 8f3f 626a a4bf
00000380: 2f7d 08be 48ab b73e de8e 1ac0 7cce 9d3f
00000390: d57d 0bbf d71a 69be bb38 3e3f a927 1fbf
000003a0: 7297 cfbe a802 023f 09c1 b33e 9513 c4bf
000003b0: 558c 55be d6ac a53c b1f6 af3e 89f6 b7bf
000003c0: 2a0d 8ebf 7012 c33d 16c2 65c0 105d 4abe
000003d0: 2ad4 64bf 3a33 da3e a89a 373f 1062 a93e
000003e0: 9225 d0bd 566c 563e 21de 2dbd 54b7 2f3f
000003f0: 7ab2 cd3e 5c20 d1bd b0ca 80bf e76a 783e
-0.09120031 -0.5194029 -0.6793148 -0.18844295 -0.06423842 0.16483626 -0.052242275 -0.42664674
-0.24997556 -0.18786158 -0.14514637 -0.10551042 -1.5143288 -0.053015977 -0.3301079 -0.19577691
1.3819641 -0.04805177 1.0408224 -0.5162878 -1.0837305 -0.27175286 0.840377 0.17182161
-0.6048025 2.0359921 -0.4257048 0.24081708 0.3097914 0.0315284 -0.5986807 1.3217537
0.68731004 0.67036736 -0.90347797 -0.870614 0.09524435 0.44110435 -1.6459242 -0.33380395
-0.56512713 -0.43755892 -0.7867927 0.32374796 -0.8932566 0.18048291 1.9310881 -2.153967
0.116883636 0.15455112 -1.3277826 1.729161 0.52391183 -0.08113776 0.7612056 -0.07257176
-0.5904809 -1.5640094 0.27049303 -0.9117904 0.26756117 -0.11715397 -0.4106432 0.51824903
-1.1701361 1.6446038 0.38299724 1.6312265 -0.77681303 0.12965669 1.0477449 0.006525567
-0.016755514 -0.39884314 1.4610182 1.0663595 0.124886364 -0.92989224 -1.16073 -1.38114
-1.1301708 0.21869093 1.7356309 -2.1369286 -0.10076077 -0.31810653 -1.7430898 -0.6529485
0.21117772 -0.7607063 2.1200604 0.051142517 0.3351976 2.156081 -1.5193822 0.18873625
-0.8315724 -0.817942 -0.5838628 -0.6478858 0.94921064 0.3691963 0.9100279 0.1830087
-0.21463883 0.7668404 -0.31851003 -1.039621 0.4720599 -1.3852856 2.0701408 1.2759434
0.099303596 -0.101950295 -0.80957615 -0.25223857 -0.74900305 0.035351105 0.64341974 1.7212379
0.5467183 -1.189408 -1.3268546 1.0378368 -0.09348191 -1.4778403 1.4858202 -0.34736994
0.43345115 -1.2044296 0.34833655 1.7986225 0.4423662 0.16334932 -1.6872135 0.019792527
0.6824684 0.36198965 -1.2708714 -0.16645545 -0.3786565 2.263879 -1.3738824 2.3510823
0.2828865 -0.34086138 0.56130654 -0.8440408 0.6945073 -0.03151656 0.96832156 -0.24901508
0.5311035 1.1261134 0.29514596 -0.6971335 -0.3260593 -0.7711663 -0.59414977 -1.9186118
0.30176023 0.1875306 0.8358418 0.47740692 -0.021995796 -0.47332007 0.61464924 1.9474596
0.21028936 0.6322961 0.8847748 -0.64547133 0.08243081 1.2830328 0.4737776 0.45794976
0.8783123 0.21429086 0.43932724 0.046801686 1.6620058 0.47528014 -1.2692206 -0.905832
0.735567 -0.5284102 0.3154376 -0.12784632 0.52117074 0.7948221 -1.056818 -0.32517642
0.240236 -0.23795149 0.10572073 -0.03309122 0.6974026 -0.31318092 -3.434747 0.27355033
0.10292235 -0.40995657 -0.23184182 -2.0493352 0.2616958 0.393678 -0.12620911 -1.0264431
-0.7936434 -1.2236793 -1.8618783 0.43622142 -0.0329077 0.30372325 -1.3311505 0.8565817
0.0705014 -0.07257292 0.7263634 -0.20946053 -0.5209741 -3.4553382 1.1184845 -1.2844965
-0.13329004 0.35872865 -2.41497 1.2328639 -0.5448888 -0.22764145 0.74305314 -0.6216989
-0.4054523 0.50785303 0.35108212 -1.5318476 -0.20854314 0.020224016 0.34367898 -1.4372112
-1.1097767 0.09525001 -3.589971 -0.19762063 -0.89386237 0.42617208 0.7172036 0.33082628
-0.10163416 0.20939764 -0.042448167 0.6863911 0.4017523 -0.1021125 -1.0061855 0.2425953
